========== IDEC Training Configuration ==========
lr: 0.001
n_clusters: 3
batch_size: 256
n_z: 2
dataset: sparse_3_dense_3_dense_3
pretrain_path: data/sparse_3_dense_3_dense_3/ae_gamma_1.0_nz_2_update_3.pkl
gamma: 1.0
update_interval: 3
tol: 0.001
train_epoch: 100
pretrain_epoch: 200
cuda: True
n_input: 2
=================================================

IDEC(
  (ae): AE(
    (enc_1): Linear(in_features=2, out_features=500, bias=True)
    (enc_2): Linear(in_features=500, out_features=500, bias=True)
    (enc_3): Linear(in_features=500, out_features=1000, bias=True)
    (z_layer): Linear(in_features=1000, out_features=2, bias=True)
    (dec_1): Linear(in_features=2, out_features=1000, bias=True)
    (dec_2): Linear(in_features=1000, out_features=500, bias=True)
    (dec_3): Linear(in_features=500, out_features=500, bias=True)
    (x_bar_layer): Linear(in_features=500, out_features=2, bias=True)
  )
)=================================================

========== IDEC Training Configuration ==========
lr: 0.001
n_clusters: 3
batch_size: 256
n_z: 2
dataset: sparse_3_dense_3_dense_3
pretrain_path: data/sparse_3_dense_3_dense_3/ae_gamma_1.0_nz_2_update_3.pkl
gamma: 1.0
update_interval: 3
tol: 0.001
train_epoch: 100
pretrain_epoch: 200
cuda: True
n_input: 2
=================================================

IDEC(
  (ae): AE(
    (enc_1): Linear(in_features=2, out_features=500, bias=True)
    (enc_2): Linear(in_features=500, out_features=500, bias=True)
    (enc_3): Linear(in_features=500, out_features=1000, bias=True)
    (z_layer): Linear(in_features=1000, out_features=2, bias=True)
    (dec_1): Linear(in_features=2, out_features=1000, bias=True)
    (dec_2): Linear(in_features=1000, out_features=500, bias=True)
    (dec_3): Linear(in_features=500, out_features=500, bias=True)
    (x_bar_layer): Linear(in_features=500, out_features=2, bias=True)
  )
)=================================================

Iter 000: Acc 0.5144, NMI 0.5794, ARI 0.4012, Δlabel 0.0000
Iter 003: Acc 0.5211, NMI 0.4802, ARI 0.3144, Δlabel 0.0744
Iter 006: Acc 0.5167, NMI 0.5581, ARI 0.3841, Δlabel 0.0600
Iter 009: Acc 0.5011, NMI 0.5340, ARI 0.3609, Δlabel 0.0478
Iter 012: Acc 0.5433, NMI 0.5557, ARI 0.3891, Δlabel 0.0467
Iter 015: Acc 0.5622, NMI 0.5575, ARI 0.3981, Δlabel 0.0200
…
