========== IDEC Training Configuration ==========
lr: 0.001
n_clusters: 2
batch_size: 256
n_z: 10
dataset: AC
pretrain_path: data/AC/ae_gamma_0.1_nz_10_update_3.pkl
gamma: 0.1
update_interval: 3
tol: 0.001
train_epoch: 100
pretrain_epoch: 200
cuda: True
n_input: 2
=================================================

IDEC(
  (ae): AE(
    (enc_1): Linear(in_features=2, out_features=500, bias=True)
    (enc_2): Linear(in_features=500, out_features=500, bias=True)
    (enc_3): Linear(in_features=500, out_features=1000, bias=True)
    (z_layer): Linear(in_features=1000, out_features=10, bias=True)
    (dec_1): Linear(in_features=10, out_features=1000, bias=True)
    (dec_2): Linear(in_features=1000, out_features=500, bias=True)
    (dec_3): Linear(in_features=500, out_features=500, bias=True)
    (x_bar_layer): Linear(in_features=500, out_features=2, bias=True)
  )
)=================================================

========== IDEC Training Configuration ==========
lr: 0.001
n_clusters: 2
batch_size: 256
n_z: 10
dataset: AC
pretrain_path: data/AC/ae_gamma_0.1_nz_10_update_3.pkl
gamma: 0.1
update_interval: 3
tol: 0.001
train_epoch: 100
pretrain_epoch: 200
cuda: True
n_input: 2
=================================================

IDEC(
  (ae): AE(
    (enc_1): Linear(in_features=2, out_features=500, bias=True)
    (enc_2): Linear(in_features=500, out_features=500, bias=True)
    (enc_3): Linear(in_features=500, out_features=1000, bias=True)
    (z_layer): Linear(in_features=1000, out_features=10, bias=True)
    (dec_1): Linear(in_features=10, out_features=1000, bias=True)
    (dec_2): Linear(in_features=1000, out_features=500, bias=True)
    (dec_3): Linear(in_features=500, out_features=500, bias=True)
    (x_bar_layer): Linear(in_features=500, out_features=2, bias=True)
  )
)=================================================

Iter 000: Acc 0.8994, NMI 0.4849, ARI 0.6275, Δlabel 0.0000
Iter 003: Acc 0.8655, NMI 0.3559, ARI 0.5095, Δlabel 0.0657
Iter 006: Acc 0.8865, NMI 0.4288, ARI 0.5823, Δlabel 0.0408
Iter 009: Acc 0.8815, NMI 0.4094, ARI 0.5647, Δlabel 0.0110
Iter 012: Acc 0.8904, NMI 0.4433, ARI 0.5957, Δlabel 0.0149
Iter 015: Acc 0.8994, NMI 0.4836, ARI 0.6273, Δlabel 0.0189
…
