========== IDEC Training Configuration ==========
lr: 0.001
n_clusters: 3
batch_size: 256
n_z: 2
dataset: sparse_3_dense_3_dense_3
pretrain_path: data/sparse_3_dense_3_dense_3/ae_gamma_0.05_nz_2_update_3.pkl
gamma: 0.05
update_interval: 3
tol: 0.001
train_epoch: 100
pretrain_epoch: 200
cuda: True
n_input: 2
=================================================

IDEC(
  (ae): AE(
    (enc_1): Linear(in_features=2, out_features=500, bias=True)
    (enc_2): Linear(in_features=500, out_features=500, bias=True)
    (enc_3): Linear(in_features=500, out_features=1000, bias=True)
    (z_layer): Linear(in_features=1000, out_features=2, bias=True)
    (dec_1): Linear(in_features=2, out_features=1000, bias=True)
    (dec_2): Linear(in_features=1000, out_features=500, bias=True)
    (dec_3): Linear(in_features=500, out_features=500, bias=True)
    (x_bar_layer): Linear(in_features=500, out_features=2, bias=True)
  )
)=================================================

========== IDEC Training Configuration ==========
lr: 0.001
n_clusters: 3
batch_size: 256
n_z: 2
dataset: sparse_3_dense_3_dense_3
pretrain_path: data/sparse_3_dense_3_dense_3/ae_gamma_0.05_nz_2_update_3.pkl
gamma: 0.05
update_interval: 3
tol: 0.001
train_epoch: 100
pretrain_epoch: 200
cuda: True
n_input: 2
=================================================

IDEC(
  (ae): AE(
    (enc_1): Linear(in_features=2, out_features=500, bias=True)
    (enc_2): Linear(in_features=500, out_features=500, bias=True)
    (enc_3): Linear(in_features=500, out_features=1000, bias=True)
    (z_layer): Linear(in_features=1000, out_features=2, bias=True)
    (dec_1): Linear(in_features=2, out_features=1000, bias=True)
    (dec_2): Linear(in_features=1000, out_features=500, bias=True)
    (dec_3): Linear(in_features=500, out_features=500, bias=True)
    (x_bar_layer): Linear(in_features=500, out_features=2, bias=True)
  )
)=================================================

Iter 000: Acc 0.5056, NMI 0.5866, ARI 0.4058, Δlabel 0.0000
Iter 003: Acc 0.6344, NMI 0.6553, ARI 0.5131, Δlabel 0.1544
Iter 006: Acc 0.5200, NMI 0.5838, ARI 0.4055, Δlabel 0.1156
Iter 009: Acc 0.5467, NMI 0.6172, ARI 0.4360, Δlabel 0.0878
Iter 012: Acc 0.5556, NMI 0.6019, ARI 0.4290, Δlabel 0.0133
Iter 015: Acc 0.5278, NMI 0.5664, ARI 0.3933, Δlabel 0.0289
…
