========== IDEC Training Configuration ==========
lr: 0.001
n_clusters: 3
batch_size: 256
n_z: 2
dataset: sparse_3_dense_3_dense_3
pretrain_path: data/sparse_3_dense_3_dense_3/ae_gamma_0.1_nz_2_update_3.pkl
gamma: 0.1
update_interval: 3
tol: 0.001
train_epoch: 100
pretrain_epoch: 200
cuda: True
n_input: 2
=================================================

IDEC(
  (ae): AE(
    (enc_1): Linear(in_features=2, out_features=500, bias=True)
    (enc_2): Linear(in_features=500, out_features=500, bias=True)
    (enc_3): Linear(in_features=500, out_features=1000, bias=True)
    (z_layer): Linear(in_features=1000, out_features=2, bias=True)
    (dec_1): Linear(in_features=2, out_features=1000, bias=True)
    (dec_2): Linear(in_features=1000, out_features=500, bias=True)
    (dec_3): Linear(in_features=500, out_features=500, bias=True)
    (x_bar_layer): Linear(in_features=500, out_features=2, bias=True)
  )
)=================================================

========== IDEC Training Configuration ==========
lr: 0.001
n_clusters: 3
batch_size: 256
n_z: 2
dataset: sparse_3_dense_3_dense_3
pretrain_path: data/sparse_3_dense_3_dense_3/ae_gamma_0.1_nz_2_update_3.pkl
gamma: 0.1
update_interval: 3
tol: 0.001
train_epoch: 100
pretrain_epoch: 200
cuda: True
n_input: 2
=================================================

IDEC(
  (ae): AE(
    (enc_1): Linear(in_features=2, out_features=500, bias=True)
    (enc_2): Linear(in_features=500, out_features=500, bias=True)
    (enc_3): Linear(in_features=500, out_features=1000, bias=True)
    (z_layer): Linear(in_features=1000, out_features=2, bias=True)
    (dec_1): Linear(in_features=2, out_features=1000, bias=True)
    (dec_2): Linear(in_features=1000, out_features=500, bias=True)
    (dec_3): Linear(in_features=500, out_features=500, bias=True)
    (x_bar_layer): Linear(in_features=500, out_features=2, bias=True)
  )
)=================================================

Iter 000: Acc 0.5200, NMI 0.5689, ARI 0.3937, Δlabel 0.0000
Iter 003: Acc 0.6411, NMI 0.6118, ARI 0.5040, Δlabel 0.1422
Iter 006: Acc 0.6356, NMI 0.6399, ARI 0.5013, Δlabel 0.0344
Iter 009: Acc 0.6367, NMI 0.6446, ARI 0.5051, Δlabel 0.0011
Iter 012: Acc 0.6267, NMI 0.6435, ARI 0.4977, Δlabel 0.0144
Iter 015: Acc 0.6233, NMI 0.6451, ARI 0.4963, Δlabel 0.0056
…
