========== IDEC Training Configuration ==========
lr: 0.001
n_clusters: 3
batch_size: 256
n_z: 2
dataset: sparse_3_dense_3_dense_3
pretrain_path: data/sparse_3_dense_3_dense_3/ae_gamma_0.5_nz_2_update_3.pkl
gamma: 0.5
update_interval: 3
tol: 0.001
train_epoch: 100
pretrain_epoch: 200
cuda: True
n_input: 2
=================================================

IDEC(
  (ae): AE(
    (enc_1): Linear(in_features=2, out_features=500, bias=True)
    (enc_2): Linear(in_features=500, out_features=500, bias=True)
    (enc_3): Linear(in_features=500, out_features=1000, bias=True)
    (z_layer): Linear(in_features=1000, out_features=2, bias=True)
    (dec_1): Linear(in_features=2, out_features=1000, bias=True)
    (dec_2): Linear(in_features=1000, out_features=500, bias=True)
    (dec_3): Linear(in_features=500, out_features=500, bias=True)
    (x_bar_layer): Linear(in_features=500, out_features=2, bias=True)
  )
)=================================================

========== IDEC Training Configuration ==========
lr: 0.001
n_clusters: 3
batch_size: 256
n_z: 2
dataset: sparse_3_dense_3_dense_3
pretrain_path: data/sparse_3_dense_3_dense_3/ae_gamma_0.5_nz_2_update_3.pkl
gamma: 0.5
update_interval: 3
tol: 0.001
train_epoch: 100
pretrain_epoch: 200
cuda: True
n_input: 2
=================================================

IDEC(
  (ae): AE(
    (enc_1): Linear(in_features=2, out_features=500, bias=True)
    (enc_2): Linear(in_features=500, out_features=500, bias=True)
    (enc_3): Linear(in_features=500, out_features=1000, bias=True)
    (z_layer): Linear(in_features=1000, out_features=2, bias=True)
    (dec_1): Linear(in_features=2, out_features=1000, bias=True)
    (dec_2): Linear(in_features=1000, out_features=500, bias=True)
    (dec_3): Linear(in_features=500, out_features=500, bias=True)
    (x_bar_layer): Linear(in_features=500, out_features=2, bias=True)
  )
)=================================================

Iter 000: Acc 0.5378, NMI 0.5788, ARI 0.4058, Δlabel 0.0000
Iter 003: Acc 0.4989, NMI 0.5216, ARI 0.3493, Δlabel 0.0722
Iter 006: Acc 0.5689, NMI 0.6325, ARI 0.4544, Δlabel 0.1056
Iter 009: Acc 0.5467, NMI 0.5918, ARI 0.4186, Δlabel 0.0256
Iter 012: Acc 0.5311, NMI 0.5852, ARI 0.4089, Δlabel 0.0156
Iter 015: Acc 0.5278, NMI 0.5735, ARI 0.3990, Δlabel 0.0056
…
