========== IDEC Training Configuration ==========
lr: 0.001
n_clusters: 3
batch_size: 256
n_z: 2
dataset: sparse_3_dense_3_dense_3
pretrain_path: data/sparse_3_dense_3_dense_3/ae_gamma_0.2_nz_2_update_3.pkl
gamma: 0.2
update_interval: 3
tol: 0.001
train_epoch: 100
pretrain_epoch: 200
cuda: True
n_input: 2
=================================================

IDEC(
  (ae): AE(
    (enc_1): Linear(in_features=2, out_features=500, bias=True)
    (enc_2): Linear(in_features=500, out_features=500, bias=True)
    (enc_3): Linear(in_features=500, out_features=1000, bias=True)
    (z_layer): Linear(in_features=1000, out_features=2, bias=True)
    (dec_1): Linear(in_features=2, out_features=1000, bias=True)
    (dec_2): Linear(in_features=1000, out_features=500, bias=True)
    (dec_3): Linear(in_features=500, out_features=500, bias=True)
    (x_bar_layer): Linear(in_features=500, out_features=2, bias=True)
  )
)=================================================

========== IDEC Training Configuration ==========
lr: 0.001
n_clusters: 3
batch_size: 256
n_z: 2
dataset: sparse_3_dense_3_dense_3
pretrain_path: data/sparse_3_dense_3_dense_3/ae_gamma_0.2_nz_2_update_3.pkl
gamma: 0.2
update_interval: 3
tol: 0.001
train_epoch: 100
pretrain_epoch: 200
cuda: True
n_input: 2
=================================================

IDEC(
  (ae): AE(
    (enc_1): Linear(in_features=2, out_features=500, bias=True)
    (enc_2): Linear(in_features=500, out_features=500, bias=True)
    (enc_3): Linear(in_features=500, out_features=1000, bias=True)
    (z_layer): Linear(in_features=1000, out_features=2, bias=True)
    (dec_1): Linear(in_features=2, out_features=1000, bias=True)
    (dec_2): Linear(in_features=1000, out_features=500, bias=True)
    (dec_3): Linear(in_features=500, out_features=500, bias=True)
    (x_bar_layer): Linear(in_features=500, out_features=2, bias=True)
  )
)=================================================

Iter 000: Acc 0.5144, NMI 0.5912, ARI 0.4102, Δlabel 0.0000
Iter 003: Acc 0.5578, NMI 0.5659, ARI 0.4029, Δlabel 0.0556
Iter 006: Acc 0.5678, NMI 0.5862, ARI 0.4231, Δlabel 0.0111
Iter 009: Acc 0.5522, NMI 0.5931, ARI 0.4215, Δlabel 0.0189
Iter 012: Acc 0.5622, NMI 0.6036, ARI 0.4331, Δlabel 0.0122
Iter 015: Acc 0.5456, NMI 0.5956, ARI 0.4209, Δlabel 0.0178
…
